…
)\n","cnn_model.compile(optimizer='rmsprop', loss='categorical_crossentropy', metrics=['accuracy'])\n","cnn_model.summary()"],"execution_count":null,"outputs":[{"output_type":"stream","text":["Model: \"functional_5\"\n","_________________________________________________________________\n","Layer (type)                 Output Shape              Param #   \n","=================================================================\n","input_3 (InputLayer)         [(None, 200, 12)]         0         \n","_________________________________________________________________\n","conv1d (Conv1D)              (None, 198, 32)           1184      \n","_________________________________________________________________\n","dropout_4 (Dropout)          (None, 198, 32)           0         \n","_________________________________________________________________\n","max_pooling1d (MaxPooling1D) (None, 99, 32)            0         \n","_________________________________________________________________\n","conv1d_1 (Conv1D)            (None, 97, 32)            3104      \n","_________________________________________________________________\n","dropout_5 (Dropout)          (None, 97, 32)            0         \n","_________________________________________________________________\n","max_pooling1d_1 (MaxPooling1 (None, 48, 32)            0         \n","_________________________________________________________________\n","conv1d_2 (Conv1D)            (None, 46, 32)            3104      \n","_________________________________________________________________\n","dropout_6 (Dropout)          (None, 46, 32)            0         \n","_________________________________________________________________\n","max_pooling1d_2 (MaxPooling1 (None, 23, 32)            0         \n","_________________________________________________________________\n","conv1d_3 (Conv1D)            (None, 21, 32)            3104      \n","_________________________________________________________________\n","dropout_7 (Dropout)          (None, 21, 32)            0         \n","_________________________________________________________________\n","global_max_pooling1d (Global (None, 32)                0         \n","_________________________________________________________________\n","dense_4 (Dense)              (None, 6)                 198       \n","=================================================================\n","Total params: 10,694\n","Trainable params: 10,694\n","Non-trainable params: 0\n","_________________________________________________________________\n"],"name":"stdout"}]},{"cell_type":"markdown","metadata":{"id":"YfosRBIuSaB2"},"source":["^ Notice how time dimension correctly disappears after the global pooling layer
…
